saved_models/best_test.pth (torch, 87395 bytes, 3 tensors)

protolayer f4 [1, 20, 1024]
00000000: e82f 803f d365 b73e e445 023f c6a1 2d3e
00000010: 4801 203f aaa7 3cbe c9e6 88bd fb0f f6bd
00000020: e427 fdbb d61b 0e3f 3a04 c53e 2e97 4ebf
00000030: e687 e93e 9d79 adbe 6d85 08be ab8f 55bf
00000040: f40b 243e 1169 31be 75b5 0dbf fe5f b4bd
00000050: 06e8 d1be 0283 d43e 4ef5 553d ff4f 343d
00000060: ae6e d8be e3f9 b73d ea11 fa3e 4659 a93d
00000070: 68aa 963f a7ba 8f3f 4bb9 d4bc 26c7 c2bc
00000080: 1844 26bf 054a 35bf 513e 313f 7362 8fbf
00000090: f89e 023f 22c6 49be 3662 acbe e36b a2be
000000a0: 906e d9be f266 9ebe aa80 3a3f f54e cf3e
000000b0: 0848 d3be 2118 6fbe caf4 babe 6358 0bbf
000000c0: 9b49 8e3f 28eb 303e d60d e5bc e0f3 d13e
000000d0: 802d c1bd d21b 363f fcc1 233d 90a8 ebbc
000000e0: 9412 883d aafc 423f d009 bb3e b2a7 29bf
000000f0: 0c46 1a3d a069 3ebf 2738 08be 89c8 c0bf
00000100: be27 21bf f123 573e 0064 ec3c 18b4 a83f
00000110: 34a3 6c3f 213b 49bf 00de 783d f637 b9be
00000120: e10b 393f e2bb 9bbe e9b2 9fbf 7c57 f73d
00000130: ecfb 8a3e 001e 59b8 8157 953f 3479 aebd
00000140: 264b 703f c69f 083d fe96 5c3e cae7 283d
00000150: d240 40bf a6c8 a73e 6247 293f d26b bd3f
00000160: 0b14 75be 8079 8d3e ca22 efbe 2098 3a3f
00000170: 7176 89be ea6d d03e 8e47 023f a06d 1ebe
00000180: 574f 85be fa11 cc3d d4e9 9f3e 4bc6 46bf
00000190: e257 acbe e8d0 acbd aca9 46be 1a14 dd3f
000001a0: 78bc a33e 0e16 5a3e 3d2d 893e 2669 4c3e
000001b0: 3122 643d 356d d5be e9a4 e93d 267f d1be
000001c0: ac75 653d 1726 27bf 7c90 30bf 45df f53e
000001d0: 58eb a7bd 8af3 9d3f 678c 89bf 7ab0 63bf
000001e0: 848c 113f 1fd1 91bd 7d47 753f 886a 0c3f
000001f0: ecb1 d23e dae2 e9be f663 1d3d f719 11be
00000200: b884 363e 7d78 ffbe b8a3 3abf dec8 de3d
00000210: 54d1 943f ee08 3ebd 34d5 7d3f f021 25bf
00000220: 50a0 693f 3c6b dabd 3a74 eabe 573f 9cbf
00000230: 90d1 823f 0c65 843f c9f0 8abd 1f6c e33e
00000240: daa6 623e 3856 313f f1f1 e0be 1aa9 49be
00000250: 613b ca3e a88a 8d3f 5179 51bf 1847 3dbe
00000260: 20e4 abbb 1e6c 553e 0a80 6f3e 3451 44be
00000270: 2160 4bbe e848 7abf c6ec 5bbe f263 d83e
00000280: cc52 09bf 8a42 ca3d 2eea f9bb d7c2 f2be
00000290: dbe3 65bf a8b3 c43e 7c44 73be 4c2b cebd
000002a0: 5a8f 2bbf b4ba 34bf 2463 5e3f 1a7a 603f
000002b0: d88b 16be c4af fdbc 7616 523d 386e 2bbf
000002c0: 560a e23e 6261 a0bf 26e7 123f 0ece 0e40
000002d0: 8c53 44be 54d4 49be bdb6 593e 0014 8d3e
000002e0: b636 13bf 6027 67bf d01a 97be a7cd 263d
000002f0: 31e8 e2be 5621 703f e101 e83d 7b13 db3d
00000300: ea00 c93f 1ee7 e83e 3238 d03f e979 6c3e
00000310: 20d7 9ebe 20dd 4dbf c600 7bbd 06f9 a9be
00000320: a5cb 9b3e a45b ec3f d400 b63d fcd3 5f3f
00000330: 002a 263f b273 6abf 979a 2f3f bf3f 973d
00000340: a242 8dbf cf6a a8bd 2880 c6bb 2e15 0a3f
00000350: d1bc c5be 0558 2cbf 2148 d9be abf9 44bf
00000360: 7c21 b1be 9b93 4f3f c732 6bbe fae9 62be
00000370: 476a 7d3e 4ca6 983e d648 58be 895d 533f
00000380: 565a 963e f809 d7bd ef37 87be 764c 773e
00000390: 3e77 fdbe a651 f73e b2e4 a4bb 7234 6f3e
000003a0: a082 11be f8e3 003e 8d3b 043f c494 16bf
000003b0: b209 943f 7e12 183f a8ec debe 3225 23be
000003c0: 2858 8fbf 839d 8f3e 7477 d63e b51b fe3c
000003d0: 2fcc 0ebe 12c0 9e3e 3a68 c93d e8b8 17bf
000003e0: fc54 913e d922 073f ce42 513f 64ea 0abd
000003f0: c8db 943f dcda 81bf d568 11bf b81a 62be
1.001462 0.35819873 0.50887895 0.16956243 0.62501955 -0.18423334 -0.06684644 -0.12014767
-0.0077257026 0.55511224 0.38479787 -0.8069943 0.45611495 -0.33881846 -0.13332148 -0.83422345
0.16020185 -0.17325236 -0.55355006 -0.088073716 -0.40997332 0.415062 0.052235894 0.044021603
-0.42271942 0.08983209 0.48841792 0.08268981 1.1770754 1.1228837 -0.02596726 -0.023776602
-0.6494765 -0.7081607 0.6923571 -1.1201919 0.5102382 -0.19704488 -0.3366868 -0.31722936
-0.42467165 -0.30937916 0.72852576 0.40489927 -0.41265893 -0.23349048 -0.36514884 -0.5443174
1.1116213 0.17277205 -0.027960699 0.41006374 -0.094325066 0.711362 0.03997992 -0.0287669
0.066441685 0.76166785 0.36530924 -0.6627151 0.03766446 -0.7437992 -0.1330267 -1.5061198
-0.62951267 0.21009804 0.028856277 1.317996 0.9243653 -0.7860585 0.06075859 -0.36175507
0.7228375 -0.3041678 -1.2476474 0.12077233 0.27145326 -5.176477e-05 1.1667329 -0.085192114
0.9386467 0.033355497 0.21541974 0.041236676 -0.7509891 0.3277027 0.66124547 1.4798529
-0.23933427 0.2763176 -0.4670623 0.72888374 -0.26848176 0.40708858 0.50890434 -0.15471506
-0.26037094 0.09964366 0.31233084 -0.7764632 -0.336608 -0.08438283 -0.19400662 1.727176
0.31979728 0.21297476 0.26792327 0.19961986 0.05569667 -0.4168488 0.11408407 -0.4091732
0.056020424 -0.65292495 -0.68970466 0.48021904 -0.08199185 1.2339947 -1.0745972 -0.88941157
0.56855035 -0.07119965 0.9581221 0.54850054 0.4115137 -0.45680887 0.03842541 -0.14170061
0.17824066 -0.49896613 -0.72906065 0.10878156 1.1626382 -0.046395235 0.9915345 -0.6450491
0.9126024 -0.106649846 -0.457918 -1.220683 1.0220203 1.0343337 -0.067842074 0.44418427
0.22133961 0.69272184 -0.43934587 -0.19693413 0.39498428 1.105794 -0.8182574 -0.18484151
-0.0052457005 0.20842025 0.23388687 -0.19171602 -0.19860889 -0.97767496 -0.2147704 0.42263752
-0.53641963 0.098759726 -0.0076267933 -0.47414276 -0.89800805 0.38418317 -0.23756593 -0.10066852
-0.6701561 -0.70597386 0.86870027 0.8768631 -0.14701784 -0.0309676 0.05129095 -0.66965055
0.4414851 -1.2529719 0.57383955 2.2313266 -0.19172496 -0.19709903 0.21261115 0.2755432
-0.5750536 -0.90294456 -0.29512644 0.04072347 -0.44317773 0.93800867 0.113284834 0.10697075
1.5703404 0.45488828 1.626715 0.2309338 -0.31023502 -0.80415535 -0.061280034 -0.33197802
0.30428806 1.8465466 0.08886877 0.8743284 0.64907837 -0.9158279 0.6859526 0.073852055
-1.103596 -0.08223497 -0.006057758 0.5393857 -0.38620618 -0.6732181 -0.42437842 -0.76943463
-0.3459586 0.81084603 -0.22968589 -0.22159567 0.24747573 0.29814374 -0.21121535 0.825646
0.29365796 -0.10499948 -0.2640986 0.24150261 -0.49505037 0.4830448 -0.0050321454 0.2335985
-0.14209986 0.12586963 0.5165337 -0.5882075 1.1565459 0.59403217 -0.4353993 -0.15932158
-1.1198778 0.2804986 0.4188801 0.031019071 -0.13945077 0.31005913 0.09834333 -0.5926652
0.2838515 0.5278755 0.8174256 -0.03391494 1.1629572 -1.0144916 -0.56800586 -0.22080505

dim_weights f4 [1024]
00000000: 04e7 273f 3bcd 2c3f cb10 263f f272 263f
00000010: 4bfc 233f a255 253f 87b9 2b3f 44c9 253f
00000020: 181b 293f 5e31 243f 0483 273f 0986 243f
00000030: bdb3 273f 63b7 213f a3a9 213f c3bb 223f
00000040: 3a86 293f b5b1 253f c58b 223f 3e23 263f
00000050: c644 273f 9d08 293f cb44 283f 87a8 263f
00000060: 7853 273f cc3a 293f bbc3 213f 9b9a 293f
00000070: 93c5 203f 9e1a 233f 7b1d 2a3f d07a 223f
00000080: d03e 273f b135 253f d1b5 253f 29b3 1f3f
00000090: 80b0 2a3f 4d63 273f a6a8 243f 617b 223f
000000a0: dd72 223f 170f 243f a30b 2c3f 2903 253f
000000b0: 7ef7 253f ea1d 263f 2b74 293f b31d 253f
000000c0: def2 283f 8eb4 273f af8f 243f 728d 213f
000000d0: 9afc 263f bc96 253f e117 253f 65fc 253f
000000e0: 119c 233f bc81 223f 9f8a 233f e276 253f
000000f0: 1b4a 263f 0bfb 243f 51c1 2a3f cc3c 203f
00000100: 5932 253f 2547 253f ee40 263f 0317 1c3f
00000110: 992a 1e3f a1ab 253f 565a 243f f4c8 243f
00000120: b10a 253f e8f6 253f 51a6 243f 1227 243f
00000130: 2e5f 253f 211c 263f 1593 233f e8b8 263f
00000140: 1061 2d3f 0688 233f 3d45 263f aedd 223f
00000150: dd5e 253f 7382 273f 211b 273f 0595 203f
00000160: 8071 243f 7786 263f afa0 223f ef41 273f
00000170: c72f 2d3f 2838 253f eae2 253f 29a3 283f
00000180: 4100 243f 4b13 283f b741 243f 7e7a 283f
00000190: aa49 283f a001 263f 56c4 253f 1208 233f
000001a0: b5dc 293f fb6f 253f fc0c 2e3f e68b 273f
000001b0: bc8c 273f 63ab 293f 8dcf 2e3f b608 243f
000001c0: 46fc 273f 10fd 243f d0a7 263f 8b53 1f3f
000001d0: ad2a 273f 87bb 1c3f 4fe8 1f3f 3fbe 213f
000001e0: f24d 293f 2be9 233f 8eaa 233f 98a3 263f
000001f0: f452 273f 6a48 283f 6f8e 2e3f cf55 233f
00000200: 5ca0 263f 14dd 253f b08a 303f 2114 263f
00000210: 8d01 223f cf91 2b3f b9c5 223f 2aeb 243f
00000220: f7b9 213f cb5d 253f 9797 243f daf3 2b3f
00000230: 3e82 273f 37e9 143f 7b32 263f 5880 203f
00000240: f23b 203f bed7 213f 8344 233f 9012 243f
00000250: 7c68 253f a8bb 253f ae8c 273f 809d 263f
00000260: e403 283f e5cd 213f 5ce3 253f 2692 283f
00000270: 8d34 2a3f 5247 233f 8c86 243f 4007 253f
00000280: e229 273f 03f6 253f 70c9 293f 573c 273f
00000290: 1c35 233f 96d8 1d3f ccbf 293f 0f39 253f
000002a0: f89e 263f 7308 273f 00c0 2a3f c34c 243f
000002b0: e625 213f 81c6 263f a6f5 293f a763 253f
000002c0: 17e4 253f 61ca 1e3f 999b 243f 1bd0 153f
000002d0: 2fb5 253f 27e6 243f 37f2 273f 0ffe 233f
000002e0: 5703 253f 9026 273f 3172 273f 0007 263f
000002f0: 9456 293f ff9d 1e3f 9f2d 253f ad19 253f
00000300: 409f 213f ea1a 273f 310e 1b3f bc70 273f
00000310: 7c43 263f ab2c 233f 72cb 293f 1dfd 253f
00000320: 353b 263f d3ba 1f3f f658 283f a0d3 263f
00000330: ba9b 283f 131c 243f 500c 203f 4e59 273f
00000340: cdc6 1e3f 9402 283f a592 273f efdf 273f
00000350: 5978 263f 2000 263f d7bb 263f bd82 253f
00000360: cd2e 273f de1e 233f 4e17 243f 2ae2 263f
00000370: 0b18 273f 8aa0 273f 2e46 233f 43e6 233f
00000380: 65ba 273f 6250 233f 1b5f 2a3f 61ec 283f
00000390: af66 223f 8aef 223f 5ccf 263f ce43 283f
000003a0: a63f 243f 1ce7 303f 8439 293f 2f63 203f
000003b0: d58a 203f 696a 263f 717b 253f 79e9 263f
000003c0: 4c55 253f 330e 2c3f c4d6 1f3f 83ec 283f
000003d0: 8b85 273f e3f8 253f 4bbd 233f 2e5c 263f
000003e0: 5edd 233f deb9 273f cadf 2b3f 7d3f 253f
000003f0: 6ac0 1a3f 46b7 253f 9e1a 263f f594 253f
0.65586877 0.67500657 0.64869374 0.6501914 0.64056844 0.6458379 0.6707997 0.6476023
0.66056967 0.6413783 0.6543429 0.6426702 0.65508634 0.6317045 0.6314947 0.6356775
0.6622044 0.64724284 0.6349452 0.64897525 0.65339315 0.6602877 0.6572997 0.651009
0.6536174 0.6610534 0.63189286 0.66251534 0.62801474 0.6371249 0.66451234 0.63468647
0.6533022 0.6453505 0.64730555 0.6238275 0.6667557 0.65385896 0.6431984 0.6346951
0.6345652 0.64085525 0.67205256 0.64457947 0.6483077 0.64889395 0.66192883 0.6449844
0.65995586 0.6550988 0.64281744 0.63106453 0.6522919 0.6468313 0.6448956 0.6483825
0.63910013 0.6347921 0.63883394 0.64634526 0.64956826 0.6444556 0.6670123 0.6259277
0.6452995 0.6456168 0.64942825 0.60972613 0.6178375 0.6471501 0.6420034 0.6436913
0.6446944 0.64829874 0.6431628 0.64122117 0.6459836 0.6488667 0.63896304 0.65125895
0.6772623 0.6387943 0.649494 0.63619506 0.64597875 0.65433425 0.6527577 0.62727386
0.6423569 0.6504893 0.63526434 0.6533498 0.6765103 0.6453881 0.6479937 0.6587396
0.6406289 0.6565444 0.6416277 0.6581191 0.657374 0.6484623 0.6475271 0.6368419
0.663524 0.64623994 0.6798856 0.65447843 0.6544912 0.6627714 0.6828545 0.6407579
0.65619314 0.6444864 0.6509981 0.6223685 0.65299493 0.61223644 0.6246385 0.6318092
0.6613456 0.6402766 0.6393212 0.65093374 0.6536095 0.65735495 0.68186086 0.6380281
0.6508844 0.64790463 0.6896162 0.64874464 0.63283616 0.6701936 0.6358295 0.6442133
0.63174385 0.6459624 0.6429381 0.6716896 0.6543311 0.5816836 0.6492078 0.6269584
0.6259147 0.6321982 0.63776416 0.64090824 0.64612556 0.64739466 0.65449035 0.65084076
0.65630937 0.63204795 0.6480005 0.65848005 0.66486436 0.637807 0.642678 0.6446419
0.65298283 0.6482851 0.66322994 0.65326446 0.63752913 0.6165861 0.66308284 0.6454019
0.6508632 0.6524727 0.6669922 0.6417963 0.62948453 0.6514664 0.66390455 0.6460518
0.6480116 0.62027556 0.64299923 0.5852067 0.6472959 0.64413685 0.65603966 0.6405954
0.6445822 0.65293217 0.6540862 0.6485443 0.6614773 0.6195983 0.6452274 0.64492303
0.6313362 0.6527544 0.6056853 0.65406394 0.64946723 0.6374003 0.6632606 0.64839345
0.6493409 0.62394446 0.65760744 0.65166664 0.6586262 0.6410534 0.6251879 0.65370643
0.62022096 0.65628934 0.65458137 0.6557607 0.65027386 0.6484394 0.6513037 0.64652616
0.6530579 0.63718975 0.6409806 0.6518885 0.6527106 0.6547934 0.6377896 0.64023226
0.6551879 0.6379453 0.6655137 0.65985686 0.6343793 0.6364676 0.65160155 0.6572846
0.6415962 0.69102645 0.66103387 0.6265134 0.6271184 0.6500612 0.6464148 0.652
0.6458328 0.67209166 0.6243708 0.6598589 0.65438145 0.64832896 0.63960713 0.64984405
0.64009655 0.65517986 0.6713835 0.6455 0.6044985 0.6473278 0.64884365 0.64680415

fc.weight f4 [2, 20]
00000000: 7a9c 43be 0000 0000 e962 49be 0000 0000
00000010: baee 31bd 3f39 1dbe 1cfe b2bc 62a9 47be
00000020: 0000 0000 6613 3dbe dd9d 09bc cbcb 5ebc
00000030: c587 01be 3581 0cbe c771 8cbb 15e8 90be
00000040: d920 45be 0000 0000 fa82 eabe 0000 0000
00000050: 0000 0000 d471 56be 0000 0000 1faa 81be
00000060: 6574 d3bd 0810 21be e963 15be 25b0 c1bb
00000070: 3695 61be 0000 0000 cf10 58be ff3a 4abe
00000080: 08a6 b0bb d3d2 04bd 68c5 9fbe e328 5cbb
00000090: 0000 0000 2bff 7dbe 0000 0000 d7f9 60be
-0.1910266 0.0 -0.19666637 0.0 -0.043440558 -0.15353869 -0.021849684 -0.19498208
0.0 -0.18464431 -0.008399454 -0.013598393 -0.12649448 -0.13721164 -0.0042860243 -0.28302065
-0.19250812 0.0 -0.45803052 0.0 0.0 -0.2094186 0.0 -0.25325105
-0.10324935 -0.15728772 -0.14588894 -0.0059108906 -0.22029576 0.0 -0.21100162 -0.19749068
-0.005390886 -0.03242762 -0.31205297 -0.0033593706 0.0 -0.2480437 0.0 -0.21970306
