saved_models/best_test.pth (torch, 87395 bytes, 3 tensors)

protolayer f4 [1, 20, 1024]
00000000: a5fb 323f 9c4b 90bf 0bfe 883f 987c 053e
00000010: 6817 883f df8e e2bd 4c2d c7bc 9a55 1ebe
00000020: b412 24bf 32ba 193e bcdb 243f d5d8 e03d
00000030: da52 a23e c478 84bf 1ca4 d3bf 9ca6 60bf
00000040: a1ed 44bd 6558 973e 0ba8 8fbf de62 95be
00000050: 778c 543c 4174 933e 392b d8be 6407 eebc
00000060: e1b6 39bc 665d d7bd c55b 5abe 12bb 91be
00000070: 97e0 e33e 0886 4f3f c9ea 9c3e 5fd3 8a3f
00000080: 5c52 38bf 7966 80bf 3950 523f 7bea 13bf
00000090: f778 163e 375e d2bc d510 b4be 7f7a 55bf
000000a0: cc5c ca3e f213 07be 9f33 c1be a816 003f
000000b0: 9a01 97be bf43 b5bc 37c3 ac3e 1fe5 c2be
000000c0: ec20 c7be 241b 4d3f 2fc9 9d3e e19b 663e
000000d0: ad39 78bf c02a ad3f c98f 00bf 727a 8abf
000000e0: 7fa2 8e3d 085a 463f cc07 3eba 987c 25be
000000f0: 42b4 463f d9f8 abbd 4daf 49bf 0980 a7bf
00000100: e851 77bf bb91 83bf 1ced c3be db78 823f
00000110: a8ec c13f 8b0d 80be 7369 fbbe 999c 323e
00000120: c210 243f fe59 85bc 7747 cebd a62f 153f
00000130: 8748 48bf 587a 3abf 2b89 9f3f 9cbb 2c3f
00000140: 4e70 b73f 21f4 0bbe 9c10 ee3d df81 1cbf
00000150: a946 24bf 4203 bd3e f588 983e 34de 523f
00000160: 6dc3 803c e8a7 433f ffd7 62bf 24c6 563f
00000170: b99e babe ff6f d33e f425 ea3e 6fd9 ce3e
00000180: f8de 8b3f c542 41be ac7a 04bf ce87 7abf
00000190: b3aa 023f af6a 54bd 5a2a a53e 92c2 293f
000001a0: c538 6f3d 6896 e03e 980e 8a3e b23d 5c3f
000001b0: 081d 9bbe df4b 903e 9e12 1d3e 668f 25bf
000001c0: 04f1 103f 4ff7 1cbf a46f 09bf f96b 653f
000001d0: 4ce2 dabd 20f1 603f 246b 55bf f306 71bf
000001e0: 8e24 423f 75d1 43bf fad7 9b3e 68a5 963e
000001f0: 2864 b53e 62b3 21bf c55c 503f 678a 19be
00000200: 15b6 e33d 92f2 b6be 86d6 da3e 189f 1c3f
00000210: 555b 433f f44f 9dbe 54a8 003f a40b 533e
00000220: 2fa4 45bd 5171 03bf a6ea f4be 802e 2ebf
00000230: 852f 963c 8bdb 8f3f f28d c2bd 7ef2 153f
00000240: b46d 7c3e b552 643f 6f7b 65bf 53a9 1d3f
00000250: 7b66 153f 0cf7 723e da5b 6fbf 5a68 10be
00000260: c458 263e dd8a 04bf dc7f 43bf c08b 47be
00000270: b7de bf3c 0d06 9dbf 8c5f 2a3f a4e7 ca3e
00000280: 81bf 0fbf 8811 083f cc02 37bf c6f3 523f
00000290: e980 82bf 8546 673f 4e1d d4be f5e7 d2be
000002a0: 2c1d 0fbf a80a 033c 0454 353e 7dc7 0dbf
000002b0: b4f4 88be 5f35 9dbc a952 9fbe affb 96be
000002c0: a579 0c3f c720 28bf 27c3 913e 280c e53f
000002d0: 459d 08be 2653 cbbd 60c7 06be e66b d73e
000002e0: 9b76 06bf 0695 3ebf 7c5b 1d3e f5c4 8bbe
000002f0: 4898 a6bd 4da7 a23e 8fa9 853e d1fe 993e
00000300: 700d 873e e062 8d3d 6df7 813f 8e4f 4cbe
00000310: 5571 5fbf e754 10bf d55a a03e 134c 20bf
00000320: dbd3 2abe 65e6 6c3f 6b34 aabe d1b3 113f
00000330: 2809 d6bc 49a0 8e3e 954d 453e 9a5e a0be
00000340: 1f48 9ebf ed45 223e 1fe4 253e d79d 843f
00000350: 5137 e0be 1f5f a43d 05cf 8abd d93d 08bf
00000360: 5988 26be a72b 063f c719 7c3e 91f2 a9be
00000370: cda1 2d3e 2695 243f 1415 f13c 9700 f33e
00000380: 5e1f 25be f71a 103f be96 6b3f ceee 543f
00000390: 21e6 6abf b78a df3e 18f3 3bbe da16 f53d
000003a0: 78c5 5fbf 9f0b 39bf 252d 4c3d b219 f1bf
000003b0: 734d dc3f 54e8 0b3f 2f3c 9d3e 70bf 95bd
000003c0: c7f9 11bf 752b 823e 81b9 883f cc80 e23d
000003d0: 55fe b03c 5a7c 0fbe f71a c7be 1132 8a3d
000003e0: 8dfc c4be 2a52 033f e7e9 453f d1ba d03e
000003f0: e4d3 943f 0d9a 7c3e 87d9 28be bbef abbe
0.6991523 -1.1273074 1.0702528 0.1303581 1.0632143 -0.11062407 -0.024313591 -0.15462342
-0.6409104 0.15012434 0.6439779 0.109788574 0.31703836 -1.0349355 -1.6534457 -0.87754226
-0.048078183 0.29559627 -1.1223158 -0.29176992 0.012972943 0.28799632 -0.42220476 -0.029056258
-0.011335106 -0.10515861 -0.2132407 -0.28463036 0.44507286 0.8106389 0.30647877 1.0845755
-0.7200067 -1.0031272 0.8215366 -0.57779664 0.14694582 -0.02567969 -0.35169092 -0.8339004
0.39523923 -0.13191202 -0.37734696 0.5003457 -0.2949341 -0.02212703 0.33742687 -0.3806543
-0.38892305 0.8011954 0.30817553 0.225204 -0.96963006 1.3528671 -0.502194 -1.0818617
0.069645874 0.77481127 -0.00072490866 -0.1616081 0.776188 -0.08397073 -0.7878311 -1.3085948
-0.96609354 -1.0278848 -0.38266838 1.0193132 1.5150347 -0.25010332 -0.4910389 0.1744255
0.6408807 -0.016278263 -0.100722246 0.5827583 -0.7823567 -0.7284293 1.2463735 0.6747377
1.4331148 -0.13667347 0.11624262 -0.6113567 -0.6417032 0.36916548 0.2979199 0.82370305
0.015718186 0.7642808 -0.88610834 0.8389609 -0.3644922 0.41296384 0.4573208 0.40400264
1.092742 -0.18873127 -0.5174968 -0.9786347 0.51041716 -0.051859554 0.32258874 0.66312516
0.05840375 0.4386475 0.2696426 0.8603164 -0.30295587 0.28182885 0.15339133 -0.64671934
0.5661776 -0.6131486 -0.53685975 0.8961788 -0.10687694 0.8786793 -0.8336661 -0.9415123
0.7583703 -0.7649148 0.30438215 0.2942307 0.35427976 -0.6316434 0.81391555 -0.14994203
0.11118714 -0.3573194 0.42741793 0.6118026 0.76311237 -0.30725062 0.5025685 0.2060991
-0.04825228 -0.5134478 -0.47835273 -0.68039703 0.018333206 1.1238874 -0.0949973 0.5857314
0.24651223 0.891887 -0.8964147 0.61586493 0.583595 0.23727053 -0.9349953 -0.14102307
0.16244799 -0.5177439 -0.7636697 -0.19486904 0.023421628 -1.2267472 0.6655204 0.39629853
-0.56151587 0.5315175 -0.7148864 0.8240322 -1.019559 0.9034198 -0.41428608 -0.41192594
-0.5590389 0.007998146 0.1770783 -0.5538252 -0.26749194 -0.019190488 -0.31117752 -0.29488894
0.54873115 -0.65675014 0.28469202 1.7894335 -0.13341244 -0.09927969 -0.13161993 0.42074507
-0.5252473 -0.7444614 0.1536693 -0.27298704 -0.08134514 0.31768265 0.26105925 0.30077222
0.2637744 0.069036245 1.0153633 -0.19952223 -0.87282306 -0.5637955 0.313193 -0.6261608
-0.16682379 0.92539054 -0.33243117 0.56915003 -0.026127413 0.27856663 0.19267876 -0.31322175
-1.236576 0.15846987 0.16200303 1.0360669 -0.43792203 0.080259554 -0.06777767 -0.5321937
-0.1626295 0.5241036 0.24619208 -0.33192876 0.16956253 0.6429008 0.029428996 0.47461388
-0.16125247 0.56291145 0.9202689 0.8317689 -0.917574 0.4366052 -0.18354452 0.11967249
-0.8741069 -0.7228336 0.04984774 -1.8835967 1.7211136 0.5465138 0.3070998 -0.073119044
-0.57021755 0.2542378 1.0681611 0.11059722 0.02160565 -0.1401228 -0.3888776 0.06747831
-0.3847393 0.5129725 0.7731003 0.4076753 1.1627164 0.2466814 -0.1648923 -0.33581337

dim_weights f4 [1024]
00000000: 0000 0000 0000 0000 0000 0000 0000 0000
00000010: 0000 0000 ea95 b93b 0000 0000 0000 0000
00000020: 0000 0000 0000 0000 0000 0000 0000 0000
00000030: 0000 0000 0000 0000 0000 0000 806e fa38
00000040: 0000 0000 0000 0000 0000 0000 0000 0000
00000050: 0000 0000 0000 0000 0000 0000 0000 0000
00000060: 0000 0000 0000 0000 0000 0000 0000 0000
00000070: 0000 0000 0000 0000 0000 0000 0000 0000
00000080: 0000 0000 0000 0000 0000 0000 0000 0000
00000090: 0000 0000 0000 0000 0000 0000 0000 0000
000000a0: 0000 0000 0000 0000 23f5 a63e 1ee4 063b
000000b0: 0000 0000 0000 0000 0000 0000 0000 0000
000000c0: 0000 0000 0000 0000 0000 0000 0000 0000
000000d0: 0000 0000 0000 0000 c33c 0939 0000 0000
000000e0: 0000 0000 0000 0000 0000 0000 0000 0000
000000f0: 0000 0000 0000 0000 0000 0000 0000 0000
00000100: c639 913c 0000 0000 0000 0000 0000 0000
00000110: 0000 0000 0000 0000 0000 0000 0000 0000
00000120: 0000 0000 0000 0000 0000 0000 0000 0000
00000130: 0000 0000 0000 0000 0000 0000 0000 0000
00000140: 0000 0000 0000 0000 0000 0000 0000 0000
00000150: 0000 0000 0000 0000 0000 0000 0000 0000
00000160: 0000 0000 0000 0000 7885 c03e 0000 0000
00000170: 0000 0000 0189 a33c 0000 0000 0000 0000
00000180: 0000 0000 0000 0000 0000 0000 0000 0000
00000190: cf94 0b3e 0000 0000 0000 0000 0000 0000
000001a0: 0000 0000 0000 0000 0000 0000 0000 0000
000001b0: 0000 0000 b1e6 973a 0000 0000 0000 0000
000001c0: 42c3 e73d 0000 0000 0000 0000 0000 0000
000001d0: 0000 0000 0000 0000 0000 0000 0000 0000
000001e0: 0000 0000 0000 0000 0000 0000 0000 0000
000001f0: 0000 0000 0000 0000 0000 0000 0000 0000
00000200: 0000 0000 0000 0000 fbe8 3a3a 0000 0000
00000210: 0000 0000 0000 0000 0000 0000 0000 0000
00000220: 0000 0000 0000 0000 0000 0000 0000 0000
00000230: 0000 0000 0000 0000 0000 0000 0000 0000
00000240: 0000 0000 0000 0000 0000 0000 0000 0000
00000250: 0000 0000 0000 0000 0000 0000 0000 0000
00000260: 0000 0000 0000 0000 0000 0000 0000 0000
00000270: 0000 0000 0000 0000 0000 0000 0000 0000
00000280: 0000 0000 0000 0000 0000 0000 1ee1 c03e
00000290: 0000 0000 0000 0000 0000 0000 0000 0000
000002a0: 0000 0000 0000 0000 0000 0000 0000 0000
000002b0: 0000 0000 0000 0000 0000 0000 0000 0000
000002c0: 0000 0000 0000 0000 0000 0000 0000 0000
000002d0: 0000 0000 0000 0000 0000 0000 0000 0000
000002e0: 0000 0000 0000 0000 0000 0000 0000 0000
000002f0: 0000 0000 0000 0000 0000 0000 0000 0000
00000300: 0000 0000 0000 0000 0000 0000 3eda 853b
00000310: 0000 0000 0000 0000 0000 0000 0000 0000
00000320: 0000 0000 0000 0000 0000 0000 0000 0000
00000330: 0000 0000 0000 0000 ec2c 093b 0000 0000
00000340: 0000 0000 0000 0000 0000 0000 0000 0000
00000350: 0000 0000 0000 0000 0000 0000 0000 0000
00000360: 0000 0000 0000 0000 0000 0000 0000 0000
00000370: 0000 0000 0000 0000 0000 0000 0000 0000
00000380: 0000 0000 0000 0000 0000 0000 0000 0000
00000390: 0000 0000 0000 0000 0000 0000 0000 0000
000003a0: 0000 0000 0000 0000 0000 0000 0000 0000
000003b0: 0000 0000 0000 0000 0000 0000 0000 0000
000003c0: 0000 0000 0000 0000 0000 0000 0000 0000
000003d0: 0000 0000 0000 0000 0000 0000 0000 0000
000003e0: 0000 0000 0000 0000 0000 0000 0000 0000
000003f0: 0000 0000 0000 0000 0000 0000 0000 0000
0.0 0.0 0.0 0.0 0.0 0.005663623 0.0 0.0
0.0 0.0 0.0 0.0 0.0 0.0 0.0 0.00011941511
0.0 0.0 0.0 0.0 0.0 0.0 0.0 0.0
0.0 0.0 0.0 0.0 0.0 0.0 0.0 0.0
0.0 0.0 0.0 0.0 0.0 0.0 0.0 0.0
0.0 0.0 0.326089 0.0020582746 0.0 0.0 0.0 0.0
0.0 0.0 0.0 0.0 0.0 0.0 0.00013087974 0.0
0.0 0.0 0.0 0.0 0.0 0.0 0.0 0.0
0.017727744 0.0 0.0 0.0 0.0 0.0 0.0 0.0
0.0 0.0 0.0 0.0 0.0 0.0 0.0 0.0
0.0 0.0 0.0 0.0 0.0 0.0 0.0 0.0
0.0 0.0 0.3760183 0.0 0.0 0.01996279 0.0 0.0
0.0 0.0 0.0 0.0 0.13630985 0.0 0.0 0.0
0.0 0.0 0.0 0.0 0.0 0.0011589137 0.0 0.0
0.11316539 0.0 0.0 0.0 0.0 0.0 0.0 0.0
0.0 0.0 0.0 0.0 0.0 0.0 0.0 0.0
0.0 0.0 0.0007130054 0.0 0.0 0.0 0.0 0.0
0.0 0.0 0.0 0.0 0.0 0.0 0.0 0.0
0.0 0.0 0.0 0.0 0.0 0.0 0.0 0.0
0.0 0.0 0.0 0.0 0.0 0.0 0.0 0.0
0.0 0.0 0.0 0.3767175 0.0 0.0 0.0 0.0
0.0 0.0 0.0 0.0 0.0 0.0 0.0 0.0
0.0 0.0 0.0 0.0 0.0 0.0 0.0 0.0
0.0 0.0 0.0 0.0 0.0 0.0 0.0 0.0
0.0 0.0 0.0 0.0040848544 0.0 0.0 0.0 0.0
0.0 0.0 0.0 0.0 0.0 0.0 0.0020931317 0.0
0.0 0.0 0.0 0.0 0.0 0.0 0.0 0.0
0.0 0.0 0.0 0.0 0.0 0.0 0.0 0.0
0.0 0.0 0.0 0.0 0.0 0.0 0.0 0.0
0.0 0.0 0.0 0.0 0.0 0.0 0.0 0.0
0.0 0.0 0.0 0.0 0.0 0.0 0.0 0.0
0.0 0.0 0.0 0.0 0.0 0.0 0.0 0.0

fc.weight f4 [2, 20]
00000000: 47fc 22bf f457 eebf 4cb6 75bf bd0e 84bb
00000010: 0000 0000 dda4 97bb c0f7 d6b7 ab6b 5bbf
00000020: b8a3 99b8 1b56 3ebb 0000 0000 85a5 98bb
00000030: 6984 9ebf 1a5a 50bb eab6 1abb c1bc b2bf
00000040: 4bb3 88bf 0000 0000 730e c4bf 2e4b 48be
00000050: 1d9c 85bb 0000 0000 47d3 abbb 2a37 d2bf
00000060: 6366 bcbf 332f d3bf 0c92 b0bf 4dec d4ba
00000070: a717 9abf a6a2 b2be a54e cfbf b63b b7bf
00000080: ab81 92bb 75cf cdbf a8d0 33bf 0000 0000
00000090: bf1c c0bb d6fd 01c0 0902 8bbb be15 c5bc
-0.63666195 -1.8620591 -0.9598129 -0.0040300773 0.0 -0.0046278075 -2.5626156e-05 -0.85711163
-7.3261035e-05 -0.0029043022 0.0 -0.0046584033 -1.2384158 -0.0031791986 -0.002360756 -1.3963853
-1.0679716 0.0 -1.531691 -0.19559929 -0.004077448 0.0 -0.005243692 -1.6423085
-1.4718746 -1.6498779 -1.379457 -0.001624474 -1.2038468 -0.34889716 -1.6195875 -1.4315097
-0.004471024 -1.6078936 -0.7024026 0.0 -0.005862802 -2.031118 -0.004242186 -0.024058219
