saved_models/best_test.pth (torch, 87395 bytes, 3 tensors)

protolayer f4 [1, 20, 1024]
000000 08 af f9 3e 35 fb 5e be b7 93 4a 3f 5c 5d 98 3e
       0.4876635 -0.21775515 0.79131645 0.29758728
000010 6d f1 5b 3f 83 e4 81 be 43 f2 a5 3e 4b 5d b3 be
       0.8591526 -0.25369653 0.32411394 -0.35032114
000020 97 21 b2 be 21 b2 60 3e ab c0 72 3f 44 a6 a7 be
       -0.34791252 0.21942951 0.9482524 -0.32744038
000030 5d 54 49 bf 78 8c 60 bf 73 d4 a2 be 68 4b 23 bf
       -0.78644353 -0.8771434 -0.3180271 -0.63786936
000040 f1 d4 95 3c 8f 68 3d be ea 7f 92 bf 48 56 b9 bd
       0.018290015 -0.18496917 -1.1445286 -0.0904966
000050 04 11 1d be 54 bc fc 3e 79 54 e0 be 39 0e 8c be
       -0.15338522 0.49362433 -0.43814448 -0.273546
000060 6d 88 4b be 9d f2 88 3e 05 81 79 3e 9f 2c be 3e
       -0.19876261 0.267476 0.24365623 0.37143418
000070 ad c2 03 3f 74 5e ec 3c fd 24 08 3f b3 a1 4b 3f
       0.51468927 0.028853633 0.5318144 0.7954361
000080 eb 08 41 3e ab 08 87 be f0 98 58 3e df 3c dc be
       0.18851058 -0.263738 0.21152091 -0.4301519
000090 5f d7 82 3e 33 65 43 bf 78 5c 0d bf e0 ce 3b be
       0.2555494 -0.7632629 -0.5521922 -0.18340635
0000a0 48 ff 3c be ab 44 81 bf 08 57 ac bc d3 70 14 3f
       -0.18456757 -1.0099081 -0.021037593 0.57984656
0000b0 7b b4 83 3f ad 92 4b be 6f 67 ad bd fd dd 55 bf
       1.0289453 -0.19880171 -0.08466994 -0.8354185
0000c0 57 8c 94 3e dd 05 d6 3e ac 85 4e be 91 bf 59 bd
       0.2901332 0.41801348 -0.2016818 -0.053161208
0000d0 74 fb bf be 28 32 0f 3f 67 94 c9 be 6b e4 d6 be
       -0.3749653 0.5593591 -0.39371035 -0.41971144
0000e0 60 84 56 3e e5 4d cf 3e 75 9f 6e 3e 13 0b 01 bf
       0.20948935 0.40489116 0.23303016 -0.5040752
0000f0 25 5f 70 3e 28 38 3d bf 39 5a ba 3d 27 03 2e bf
       0.23473795 -0.7391381 0.0909924 -0.6797356
000100 9f 47 60 bf 73 60 36 bf 49 46 46 be c3 5d 53 3f
       -0.87609285 -0.7124092 -0.19362749 0.82564944
000110 90 75 5d 3f c8 20 50 be 07 ff 88 3e d1 fd cf 3d
       0.8650751 -0.20325005 0.2675707 0.101558335
000120 2d c9 43 3f c8 db 8b be 03 39 8d bf 48 66 db 3d
       0.76478845 -0.27316117 -1.1033024 0.10712868
000130 b4 84 c8 bd d5 0a d2 be 18 70 9f 3f e6 d7 28 3d
       -0.09790936 -0.4102389 1.2456083 0.04122152
000140 93 0a 0f 40 01 05 c6 be a1 47 9e 3e 00 8d 42 be
       2.2350204 -0.38675693 0.30914024 -0.189991
000150 b6 35 8d bf c3 58 b1 3e c7 4d 1c 3f fb 01 63 3f
       -1.1032016 0.34638032 0.6105618 0.88674897
000160 c0 f6 54 bd e0 95 f3 3e 63 1b 48 bf a3 15 1e 3f
       -0.05199313 0.47575283 -0.7816679 0.61751765
000170 cd e9 44 3e 9f dc 9a 3e 57 fb 6d bd f9 41 8b be
       0.19229813 0.30246446 -0.058101024 -0.2719877
000180 94 99 7d 3f 4b bc 87 3e 60 c7 a8 3d 2c e4 8d bf
       0.99062467 0.26510844 0.08241153 -1.1085258
000190 79 fc b6 3d 5d 27 38 3d 28 ba 31 be 84 5a 81 3f
       0.08934874 0.044959415 -0.17356169 1.0105748
0001a0 9b 19 43 3e 97 c0 11 3d c1 ae 91 3f 10 8a d3 3e
       0.19052736 0.03558406 1.1381456 0.4131627
0001b0 10 c4 c2 3c 8b e8 b5 bd 25 2f c0 be 38 d3 e8 be
       0.02377513 -0.08882245 -0.37535968 -0.45473647
0001c0 11 af 5b 3d d7 1d 02 bf 07 ec 99 be e5 e3 4d 3f
       0.053633753 -0.5082678 -0.30062887 0.80425864
0001d0 e8 a0 96 bf fd 02 67 3f d5 ff b7 bf 1c 42 7d bf
       -1.1767855 0.90238935 -1.4374949 -0.98929
0001e0 26 4e 15 3f 70 b9 d4 bc 08 02 ef 3e bb df 13 3f
       0.5832237 -0.02596733 0.46681237 0.5776326
0001f0 e6 ae 90 3f d4 dd d8 be 67 15 95 3f 87 15 ad 3e
       1.1303375 -0.4235674 1.1647156 0.33805487
000200 69 95 00 3f 84 d4 12 3e 2b 74 5e be a0 6c 60 3e
       0.5022798 0.14338881 -0.21724002 0.21916437
000210 99 d5 24 3f 95 94 c4 bb eb 20 e9 bc 41 f8 49 3e
       0.64388424 -0.0059991577 -0.02845808 0.19723608
000220 c9 84 4a 3f a2 38 10 3d 07 86 15 3d 5f 64 7f bf
       0.79108864 0.03521026 0.03650477 -0.9976253
000230 41 de 64 3f af 59 a8 3f 6d e8 96 3e 51 99 92 3f
       0.8940163 1.3152369 0.29474202 1.1453038
000240 00 20 45 bc 6b 30 b2 3f dd e6 6e bf 73 c7 81 3e
       -0.012031555 1.3921026 -0.9332102 0.2534748
000250 1f 13 bd 3e 4c 05 51 3f 85 2c d6 be d3 66 1a bf
       0.3692865 0.8164871 -0.4183084 -0.6031315
000260 80 7e b3 bd 10 21 b0 bc 9b b4 ae bd 71 9b 94 bd
       -0.08764362 -0.02150014 -0.085305415 -0.072562106
000270 58 26 ab be f2 da 84 bf 09 3e c6 bd 10 cc 80 3e
       -0.3342769 -1.0379317 -0.09679801 0.25155687
000280 0b 84 89 be 47 fd 02 bf 0b 8f cd bd d3 f4 9a be
       -0.26858553 -0.5116772 -0.10037049 -0.3026491
000290 79 73 6c bf d6 09 0f 3f ac a1 26 bf 1b 7e ed bd
       -0.923637 0.55874383 -0.6509044 -0.11596318
0002a0 ad 32 f5 be 37 22 f6 3d e3 b9 be 3e 17 03 54 be
       -0.47890225 0.12018245 0.37251195 -0.20704304
0002b0 68 3f cc bd 40 f4 bd be 58 ef fb be 08 99 5b 3d
       -0.09973031 -0.3710041 -0.49206042 0.05361274
0002c0 c0 ff 5b 3f 24 be 28 bf fb 5f 2d 3f 71 47 ec 3f
       0.8593712 -0.6591513 0.6772458 1.8459302
0002d0 83 bc 8c be 54 08 67 3e 7d 86 2e be cc d7 c9 be
       -0.27487573 0.2256177 -0.1704349 -0.39422452
0002e0 87 7c fa 3d cf ab f9 be f1 99 3a 3e 11 6e 05 bf
       0.12230783 -0.48763892 0.18222786 -0.52121073
0002f0 00 2d f5 38 9d e2 6c 3f f4 08 06 3f 30 a5 ee 3c
       0.00011690892 0.92533284 0.5235741 0.029131502
000300 c7 ad a5 3e 63 10 3a 3f 47 2e c4 3f 4b f5 13 3e
       0.32359144 0.72681254 1.5326623 0.1444904
000310 60 6c f6 be 6f 96 c5 bf e3 8c 36 3e 9f 6c f3 be
       -0.4812956 -1.5436534 0.17827182 -0.4754381
000320 c4 d0 90 be 89 81 8b 3f 24 d3 e9 3e bb 82 af 3f
       -0.28284276 1.0898906 0.456689 1.3711771
000330 91 a2 6a 3e 10 66 82 3e 9a 8d 85 3f c8 8d 92 be
       0.22913577 0.25468493 1.0433838 -0.28623796
000340 bf c4 c6 bf c0 f8 8f 3e 9d 57 b2 3e 15 ab a4 3f
       -1.5528792 0.2811947 0.3483247 1.286471
000350 d8 f8 26 bf bb 65 8b be 82 66 97 be 15 bd b9 be
       -0.65223455 -0.27226052 -0.29570395 -0.3627707
000360 ac 39 11 bf c7 b0 9a 3f ac 39 39 be 0e 59 a2 be
       -0.56728625 1.2085198 -0.18088406 -0.31708568
000370 93 23 49 3e 7f 1c 7f 3f 10 24 14 bf ff 60 f5 3e
       0.19642477 0.99652857 -0.57867527 0.47925565
000380 a0 cd 5e bc bf 7c 0d 3f 24 ea b1 3e 95 fb 41 3f
       -0.0135988295 0.5526847 0.34748948 0.7577451
000390 58 8d d7 be 7b 1b e6 3e 2d 4f 16 bf 80 ed d6 3e
       -0.42100024 0.4494284 -0.5871456 0.41978073
0003a0 19 24 7f be 43 c2 4a be a3 3d 34 3f e3 25 f0 bf
       -0.24916114 -0.19800667 0.7040655 -1.8761562
0003b0 eb 45 8b 3f dd 33 14 3f 2c 41 98 be 65 87 02 3d
       1.0880712 0.5789164 -0.29737222 0.031867404
0003c0 03 a0 ad bf 83 c7 08 3e f3 aa 53 3f 25 64 08 bf
       -1.3564457 0.13357358 0.8268272 -0.5327781
0003d0 b0 6b 00 3f f1 6e 35 be e8 83 22 be b5 af b5 be
       0.5016432 -0.17718102 -0.1587063 -0.35485616
0003e0 24 3a bf 3d 02 e8 0f 3f 65 ad 85 3f 89 7c 7c 3f
       0.09337261 0.5621339 1.0443541 0.98627526
0003f0 21 d5 cb 3f bb ea 79 bf 03 0f c7 be bc ad 1f bf
       1.5924417 -0.97623795 -0.3887864 -0.6237447

dim_weights f4 [1024]
000000 6e 24 0d 3f cc e2 0e 3f 49 9f 09 3f c4 3f 0d 3f
       0.5513371 0.55814815 0.53758675 0.55175424
000010 05 b1 09 3f 8b 6b 2f 3f 93 be 2e 3f 7f a1 15 3f
       0.53785735 0.6852347 0.68259543 0.5844955
000020 9d aa 48 3f 71 dc 13 3f d7 5f 0e 3f a3 b7 11 3f
       0.78385335 0.5775824 0.5561499 0.5692083
000030 66 60 11 3f 8b 75 fe 3e ce 71 60 3f 94 0e 1e 3f
       0.5678772 0.49699053 0.8767365 0.61740994
000040 ef 65 1b 3f ac 41 12 3f 42 ce 0f 3f 95 f4 12 3f
       0.60702413 0.5713146 0.561741 0.5740445
000050 4a ee 12 3f eb 76 15 3f 31 2d 0f 3f 30 2b 12 3f
       0.5739485 0.5838458 0.5592833 0.5709715
000060 c5 01 12 3f 13 38 14 3f a8 c7 09 3f fe f6 2c 3f
       0.5703395 0.5789806 0.53820276 0.6756438
000070 19 99 0e 3f 8a ad 0a 3f c0 4c 18 3f d3 17 0d 3f
       0.5570236 0.5417105 0.5949211 0.5511448
000080 1d 99 12 3f 46 de 0d 3f 7c 38 17 3f 9b 72 0f 3f
       0.5726488 0.5541729 0.59070563 0.5603425
000090 a4 7e 17 3f a7 7c 14 3f b9 72 11 3f 19 ab 03 3f
       0.59177613 0.58002704 0.5681568 0.5143295
0000a0 a2 62 10 3f c0 24 11 3f 33 f9 4a 3f 8e 1f 14 3f
       0.564005 0.566967 0.792865 0.5786065
0000b0 a5 04 17 3f 23 e9 0d 3f c9 ea 0c 3f 0f 85 15 3f
       0.5899146 0.55433863 0.55045754 0.58406156
0000c0 e6 b8 15 3f 97 65 36 3f cd 6c 15 3f fb 77 11 3f
       0.5848526 0.71248764 0.5836914 0.568237
0000d0 d6 71 16 3f 90 35 fb 3e 8b 5f 23 3f 93 3d 1c 3f
       0.5876745 0.49064302 0.6381766 0.61031455
0000e0 9a e3 0e 3f fa 48 10 3f 5b 30 0d 3f cf 44 0c 3f
       0.5581604 0.56361353 0.5515191 0.54792494
0000f0 59 63 06 3f d0 37 19 3f f3 79 0d 3f 43 24 e5 3e
       0.5249534 0.5985079 0.55264205 0.44754228
000100 d9 9d 66 3f 76 f4 27 3f a4 ad 19 3f fa 1e 0e 3f
       0.90084606 0.6560739 0.6003058 0.55516016
000110 f8 c9 ff 3e 63 ca 0e 3f 8d d5 10 3f e4 f7 0c 3f
       0.49958777 0.5577757 0.5657585 0.5506575
000120 0e 4e 1d 3f fc 4e 11 3f 63 73 27 3f d9 66 0e 3f
       0.61447227 0.56761146 0.6541044 0.55625683
000130 a0 3d 0b 3f ff 98 0c 3f b9 51 29 3f cc cf 27 3f
       0.5439091 0.54920954 0.66140324 0.6555145
000140 26 44 34 3f 85 c1 0e 3f fc a9 12 3f 7f e1 2d 3f
       0.70416486 0.5576404 0.57290626 0.67922205
000150 6f e9 0b 3f 91 68 15 3f ef 62 05 3f 3c d0 06 3f
       0.54653066 0.5836268 0.52104086 0.5266149
000160 55 c0 0e 3f 91 0e 15 3f a4 37 2f 3f 2c fd 10 3f
       0.55762225 0.5822535 0.68444276 0.5663631
000170 50 f2 10 3f 6c 3e 50 3f d7 de 1c 3f 9c 55 17 3f
       0.5661974 0.8134525 0.61277527 0.59115005
000180 83 99 0f 3f 53 bf 44 3f 74 f0 0d 3f ac f7 43 3f
       0.56093615 0.7685444 0.5544503 0.7654979
000190 e8 07 47 3f 81 2a 0c 3f fd c7 0e 3f 99 bf 05 3f
       0.7774644 0.54752356 0.5577391 0.5224548
0001a0 77 a5 11 3f f1 8b 07 3f aa cd 1b 3f 44 9c 33 3f
       0.56893104 0.5294791 0.60860693 0.7016032
0001b0 a6 10 0f 3f cc 73 44 3f 48 67 17 3f cc 58 0d 3f
       0.5588478 0.7673919 0.5914197 0.5521362
0001c0 74 ad 13 3f 38 37 06 3f 3b 9d 13 3f 65 c7 0b 3f
       0.57686543 0.5242801 0.5766179 0.54601127
0001d0 a3 63 22 3f 0f f2 06 3f 5d bb 12 3f 85 e5 12 3f
       0.63433284 0.527131 0.57317144 0.5738147
0001e0 91 cf 16 3f 0a 6c 04 3f 54 ae 15 3f bb 44 18 3f
       0.5891047 0.51727355 0.5846913 0.59479874
0001f0 7f 51 12 3f ac a3 12 3f da 79 1a 3f d4 ad 1a 3f
       0.57155603 0.57280993 0.6034218 0.6042149
000200 c9 69 0b 3f 33 8f 0d 3f b3 c6 32 3f 7c 50 3d 3f
       0.5445829 0.5529663 0.6983444 0.73950934
000210 3c be fc 3e f4 b2 10 3f de 16 0c 3f 20 15 11 3f
       0.49363887 0.5652306 0.5472239 0.5667286
000220 e9 2e 10 3f e2 e9 19 3f f5 79 14 3f c3 c2 0b 3f
       0.5632158 0.601225 0.5799859 0.5459406
000230 b7 e3 10 3f 3e b8 e3 3e 6d 02 10 3f 86 7f 09 3f
       0.56597465 0.44476503 0.562537 0.5371021
000240 5b 5b 0c 3f 32 45 1c 3f f9 a4 07 3f 31 aa 12 3f
       0.548269 0.61043084 0.52986103 0.5729094
000250 6b 03 13 3f 21 1a 0e 3f fa 44 13 3f 48 1e 16 3f
       0.5742709 0.5550862 0.57527125 0.58639956
000260 b6 bb 11 3f 77 95 1c 3f 4b 66 16 3f 37 14 16 3f
       0.5692705 0.61165565 0.58749837 0.58624595
000270 89 4f 29 3f 7f c4 07 3f 29 63 0a 3f ee 76 15 3f
       0.66136986 0.53034204 0.54057556 0.583846
000280 06 4a 12 3f bf 93 0d 3f c8 b8 10 3f 4e 99 21 3f
       0.571442 0.5530357 0.56531954 0.6312455
000290 ab 03 10 3f db 59 08 3f ee d0 28 3f c2 f3 10 3f
       0.56255597 0.5326211 0.659438 0.56621945
0002a0 43 eb 0c 3f 8d c8 11 3f 75 34 11 3f e1 e1 14 3f
       0.5504648 0.5694664 0.5672067 0.58157164
0002b0 5b 63 02 3f b7 22 11 3f 87 65 18 3f 92 b9 0c 3f
       0.50932854 0.56693596 0.5952992 0.5497066
0002c0 5b 01 11 3f 88 ec 0d 3f e5 e8 0a 3f 1e 20 07 3f
       0.56642693 0.55439043 0.5426162 0.5278338
0002d0 7d 58 0e 3f 13 61 11 3f 49 11 13 3f d4 3f 09 3f
       0.5560377 0.5678875 0.5744825 0.5361302
0002e0 16 ab 10 3f e1 28 0b 3f af d2 22 3f 0b 72 0d 3f
       0.56511056 0.5435925 0.6360273 0.5525214
0002f0 f4 e7 0e 3f bf 90 10 3f bb 86 0d 3f e6 66 10 3f
       0.5582268 0.56470865 0.5528371 0.5640701
000300 02 1a 1b 3f 42 f6 28 3f 0b 81 04 3f b2 a4 24 3f
       0.6058656 0.6600076 0.51759404 0.64313805
000310 8e 23 01 3f 7b da 03 3f 72 bb 47 3f ad 93 0c 3f
       0.5044488 0.5150525 0.78020394 0.54912835
000320 9e 55 3d 3f ec 36 f0 3e cb e6 0a 3f 53 0a 01 3f
       0.73958766 0.46916902 0.5425841 0.5040638
000330 a6 f7 11 3f 17 ba 18 3f 18 17 0c 3f 89 48 10 3f
       0.57018507 0.5965895 0.5472274 0.5636068
000340 d3 f3 fb 3e 6e b2 16 3f 27 4f 16 3f 13 7f 0f 3f
       0.4920946 0.5886601 0.58714527 0.56053275
000350 17 ea 18 3f 53 ff 14 3f d8 20 12 3f 51 d1 0f 3f
       0.5973219 0.58202094 0.57081366 0.56178766
000360 ee ea 08 3f 0d 1f 0a 3f b9 82 0c 3f 06 bd 2e 3f
       0.53483474 0.5395363 0.54886967 0.68257177
000370 ed c5 0b 3f f2 db 69 3f 35 30 1b 3f 4a dd 07 3f
       0.54598886 0.91351235 0.60620433 0.53072035
000380 de 34 14 3f 02 e4 04 3f d6 7e 08 3f d6 39 08 3f
       0.5789317 0.5191041 0.53318536 0.5321325
000390 38 91 07 3f c3 e5 0f 3f e2 c0 16 3f 05 ca 14 3f
       0.5295596 0.56209964 0.58888066 0.5812076
0003a0 40 92 07 3f e4 35 7a 3f d8 e3 0b 3f d3 28 3e 3f
       0.52957535 0.9773848 0.54644537 0.7428104
0003b0 cf 48 10 3f 57 c7 12 3f 2f 71 19 3f 34 d0 13 3f
       0.563611 0.5733542 0.5993833 0.5773957
0003c0 65 90 1a 3f 14 ae 23 3f 65 98 01 3f 9f b8 20 3f
       0.6037658 0.639375 0.5062316 0.6278171
0003d0 de 10 11 3f c1 9c 10 3f 36 b2 0c 3f a4 cb 0a 3f
       0.5666636 0.5648919 0.5495943 0.5421698
0003e0 2a 78 21 3f 2e cc 13 3f fe 01 20 3f 09 ea 1d 3f
       0.6307398 0.5773343 0.6250304 0.61685234
0003f0 0d 84 04 3f c8 f2 08 3f bd 24 12 3f ab 11 30 3f
       0.51763994 0.53495455 0.5708731 0.6877696

fc.weight f4 [2, 20]
000000 c3 05 0c bf 73 f6 30 bf 74 01 11 bf 66 da 29 bd
       -0.5469629 -0.6912605 -0.5664284 -0.041468047
000010 00 00 00 00 00 00 00 00 00 00 00 00 6d be d3 be
       0.0 0.0 0.0 -0.4135622
000020 00 00 00 00 14 4f 07 be 00 00 00 00 00 00 00 00
       0.0 -0.1321376 0.0 0.0
000030 10 16 1a bf 00 00 00 00 00 00 00 00 4e 2d 18 bf
       -0.60189915 0.0 0.0 -0.5944413
000040 f6 53 1a bf 00 00 00 00 8c f2 48 bf 3b 75 d9 be
       -0.60284364 0.0 -0.784951 -0.42472252
000050 00 00 00 00 00 00 00 00 00 00 00 00 5a 1e 25 be
       0.0 0.0 0.0 -0.1612486
000060 4e 23 1b bf 75 61 43 bf 17 4d 33 bf 05 d6 84 bb
       -0.60600746 -0.7632058 -0.70039505 -0.0040538334
000070 59 f4 29 bf 91 f0 10 bd 65 bc 58 bf f6 7f 35 bf
       -0.6638847 -0.035385672 -0.8466247 -0.7089838
000080 00 00 00 00 e6 4e 13 bf db c3 13 bf 00 00 00 00
       0.0 -0.57542264 -0.57720727 0.0
000090 00 00 00 00 f9 a5 0a bf 00 00 00 00 db 87 88 b7
       0.0 -0.54159504 0.0 -1.6275726e-05
